VoiceCraft(
  (text_embedding): TokenEmbedding(
    (dropout): Dropout(p=0.0, inplace=False)
    (word_embeddings): Embedding(121, 2048)
  )
  (audio_embedding): ModuleList(
    (0-3): 4 x TokenEmbedding(
      (dropout): Dropout(p=0.0, inplace=False)
      (word_embeddings): Embedding(2052, 2048)
    )
  )
  (text_positional_embedding): SinePositionalEmbedding(
    (dropout): Dropout(p=0.0, inplace=False)
  )
  (audio_positional_embedding): SinePositionalEmbedding(
    (dropout): Dropout(p=0.0, inplace=False)
  )
  (decoder): TransformerEncoder(
    (layers): ModuleList(
      (0-15): 16 x TransformerEncoderLayer(
        (self_attn): MultiheadAttention(
          (out_proj): NonDynamicallyQuantizableLinear(in_features=2048, out_features=2048, bias=True)
        )
        (linear1): Linear(in_features=2048, out_features=8192, bias=True)
        (dropout): Dropout(p=0.0, inplace=False)
        (linear2): Linear(in_features=8192, out_features=2048, bias=True)
        (dropout1): Dropout(p=0.0, inplace=False)
        (dropout2): Dropout(p=0.0, inplace=False)
        (norm1): LayerNorm((2048,), eps=1e-05, elementwise_affine=True)
        (norm2): LayerNorm((2048,), eps=1e-05, elementwise_affine=True)
      )
    )
    (norm): LayerNorm((2048,), eps=1e-05, elementwise_affine=True)
  )
  (predict_layer): ModuleList(
    (0-3): 4 x Sequential(
      (0): Linear(in_features=2048, out_features=1024, bias=True)
      (1): GELU(approximate='none')
      (2): Linear(in_features=1024, out_features=2052, bias=True)
    )
  )
  (accuracy_metrics): ModuleList(
    (0-3): 4 x MulticlassAccuracy()
  )
)




————————————————————————————————————完成调整后变为————————————————————————————————————





PeftModel(
  (base_model): LoraModel(
    (model): VoiceCraft(
      (text_embedding): TokenEmbedding(
        (dropout): Dropout(p=0.0, inplace=False)
        (word_embeddings): Embedding(121, 2048)
      )
      (audio_embedding): ModuleList(
        (0-3): 4 x TokenEmbedding(
          (dropout): Dropout(p=0.0, inplace=False)
          (word_embeddings): Embedding(2052, 2048)
        )
      )
      (text_positional_embedding): SinePositionalEmbedding(
        (dropout): Dropout(p=0.0, inplace=False)
      )
      (audio_positional_embedding): SinePositionalEmbedding(
        (dropout): Dropout(p=0.0, inplace=False)
      )
      (decoder): TransformerEncoder(
        (layers): ModuleList(
          (0-15): 16 x TransformerEncoderLayer(
            (self_attn): MultiheadAttention(
              (out_proj): lora.Linear(
                (base_layer): NonDynamicallyQuantizableLinear(in_features=2048, out_features=2048, bias=True)
                (lora_dropout): ModuleDict(
                  (default): Dropout(p=0.0, inplace=False)
                )
                (lora_A): ModuleDict(
                  (default): Linear(in_features=2048, out_features=64, bias=False)
                )
                (lora_B): ModuleDict(
                  (default): Linear(in_features=64, out_features=2048, bias=False)
                )
                (lora_embedding_A): ParameterDict()
                (lora_embedding_B): ParameterDict()
                (lora_magnitude_vector): ModuleDict()
              )
            )
            (linear1): lora.Linear(
              (base_layer): Linear(in_features=2048, out_features=8192, bias=True)
              (lora_dropout): ModuleDict(
                (default): Dropout(p=0.0, inplace=False)
              )
              (lora_A): ModuleDict(
                (default): Linear(in_features=2048, out_features=64, bias=False)
              )
              (lora_B): ModuleDict(
                (default): Linear(in_features=64, out_features=8192, bias=False)
              )
              (lora_embedding_A): ParameterDict()
              (lora_embedding_B): ParameterDict()
              (lora_magnitude_vector): ModuleDict()
            )
            (dropout): Dropout(p=0.0, inplace=False)
            (linear2): lora.Linear(
              (base_layer): Linear(in_features=8192, out_features=2048, bias=True)
              (lora_dropout): ModuleDict(
                (default): Dropout(p=0.0, inplace=False)
              )
              (lora_A): ModuleDict(
                (default): Linear(in_features=8192, out_features=64, bias=False)
              )
              (lora_B): ModuleDict(
                (default): Linear(in_features=64, out_features=2048, bias=False)
              )
              (lora_embedding_A): ParameterDict()
              (lora_embedding_B): ParameterDict()
              (lora_magnitude_vector): ModuleDict()
            )
            (dropout1): Dropout(p=0.0, inplace=False)
            (dropout2): Dropout(p=0.0, inplace=False)
            (norm1): LayerNorm((2048,), eps=1e-05, elementwise_affine=True)
            (norm2): LayerNorm((2048,), eps=1e-05, elementwise_affine=True)
          )
        )
        (norm): LayerNorm((2048,), eps=1e-05, elementwise_affine=True)
      )
      (predict_layer): ModuleList(
        (0-3): 4 x Sequential(
          (0): Linear(in_features=2048, out_features=1024, bias=True)
          (1): GELU(approximate='none')
          (2): Linear(in_features=1024, out_features=2052, bias=True)
        )
      )
      (accuracy_metrics): ModuleList(
        (0-3): 4 x MulticlassAccuracy()
      )
    )
  )
)







Module: 
Module: text_embedding
Module: text_embedding.dropout
Module: text_embedding.word_embeddings
Module: audio_embedding
Module: audio_embedding.0
Module: audio_embedding.0.dropout
Module: audio_embedding.0.word_embeddings
Module: audio_embedding.1
…
